…
wekws工具支持三个唤醒方案的训练。

1) 基于Max-Pooling Loss的方案: wekws/examples/hi_xiaowen/s0/run.sh

2) 基于CTC Loss (DS_TCN backbone)的方案: wekws/examples/hi_xiaowen/s0/run_ctc.sh

3) 基于CTC Loss (FSMN backbone)的方案: wekws/examples/hi_xiaowen/s0/run_fsmn_ctc.sh



本文跑方案1)

0) 方案１的网络结构KWSModel由四部分组成。
　第一部分：GlobalCMVN层:用于归一化输入的音频声学特征。

　第二部分: 线性层LinearSubsampling1用于将输入特征维度映射到模型设计的维度。比如如下是从in_features=40到out_features=256。

　第三部分: backbone DS_TCN. 轻量化的TCN结构，核心的模型参数。

　第四部分:　LinearClassifier线性分类器，针对每一个关键词(唤醒词)都使用独立的二分类来处理。

KWSModel(
  (global_cmvn): GlobalCMVN()
  (preprocessing): LinearSubsampling1(
    (out): Sequential(
      (0): Linear(in_features=40, out_features=256, bias=True)
      (1): ReLU()
    )
    (quant): QuantStub()
    (dequant): DeQuantStub()
  )
  (backbone): TCN(
    (network): ModuleList(
      (0): DsCnnBlock(
        (quant): QuantStub()
        (dequant): DeQuantStub()
        (cnn): Sequential(
          (0): Conv1d(256, 256, kernel_size=(8,), stride=(1,), groups=256)
          (1): BatchNorm1d(256, eps=1e-05, momentum=0.1, affine=True, track_running_stats=True)
          (2): ReLU()
          (3): Conv1d(256, 256, kernel_size=(1,), stride=(1,))
          (4): BatchNorm1d(256, eps=1e-05, momentum=0.1, affine=True, track_running_stats=True)
          (5): ReLU()
          (6): Dropout(p=0.1, inplace=False)
        )
      )
      (1): DsCnnBlock(
        (quant): QuantStub()
        (dequant): DeQuantStub()
        (cnn): Sequential(
          (0): Conv1d(256, 256, kernel_size=(8,), stride=(1,), dilation=(2,), groups=256)
          (1): BatchNorm1d(256, eps=1e-05, momentum=0.1, affine=True, track_running_stats=True)
          (2): ReLU()
          (3): Conv1d(256, 256, kernel_size=(1,), stride=(1,))
          (4): BatchNorm1d(256, eps=1e-05, momentum=0.1, affine=True, track_running_stats=True)
          (5): ReLU()
          (6): Dropout(p=0.1, inplace=False)
        )
      )
      (2): DsCnnBlock(
        (quant): QuantStub()
        (dequant): DeQuantStub()
        (cnn): Sequential(
          (0): Conv1d(256, 256, kernel_size=(8,), stride=(1,), dilation=(4,), groups=256)
          (1): BatchNorm1d(256, eps=1e-05, momentum=0.1, affine=True, track_running_stats=True)
          (2): ReLU()
          (3): Conv1d(256, 256, kernel_size=(1,), stride=(1,))
          (4): BatchNorm1d(256, eps=1e-05, momentum=0.1, affine=True, track_running_stats=True)
          (5): ReLU()
          (6): Dropout(p=0.1, inplace=False)
        )
      )
      (3): DsCnnBlock(
        (quant): QuantStub()
        (dequant): DeQuantStub()
        (cnn): Sequential(
          (0): Conv1d(256, 256, kernel_size=(8,), stride=(1,), dilation=(8,), groups=256)
          (1): BatchNorm1d(256, eps=1e-05, momentum=0.1, affine=True, track_running_stats=True)
          (2): ReLU()
          (3): Conv1d(256, 256, kernel_size=(1,), stride=(1,))
          (4): BatchNorm1d(256, eps=1e-05, momentum=0.1, affine=True, track_running_stats=True)
          (5): ReLU()
          (6): Dropout(p=0.1, inplace=False)
        )
      )
    )
  )
  (classifier): LinearClassifier(
    (linear): Linear(in_features=256, out_features=2, bias=True)
    (quant): QuantStub()
    (dequant): DeQuantStub()
  )
  (activation): Sigmoid()
)
１: 先下载解压好上文开源训练数据，Hi Xiaowen(你好小问)

准备好训练数据
2: 数据预处理
修改wekws/examples/hi_xiaowen/s0/run.sh中数据地址。然后执行数据准备的步骤，分割train, dev,test数据集。

cd /mnt2/cy/works/wekws/examples/hi_xiaowen/s0
bash run.sh 0 0 
3: 计算CMVN和格式化数据
# 来自 wekws/examples/hi_xiaowen/s0/run.sh
　if [ ${stage} -le 1 ] && [ ${stop_stage} -ge 1 ]; then
…
